data/Chrome/Profiles/optimization_guide_model_store/20/E6DC4029A1E4B4C1/528117EB7AF3C367/model.tflite (tflite, 64824 bytes, 5 tensors)

arith.constant f4 [1, 64]
00000000: c058 053e 74b7 12be e8d6 3f3e 7563 a8bd
00000010: a5d8 9dbe c542 7d3e 382a 56be fbf1 ea3d
00000020: 4562 503d 1b43 293e a0ac f1bd 1587 91bd
00000030: 2f3e d3bd bd5c 56be c4fe 0c3e 28af bb3e
00000040: 3ecd 9e3e 41ab 9ebe 1b42 e3bd 76a6 cb3b
00000050: e199 733e 8b40 7a3e 3e5b 95be 36ed 333d
00000060: cfab 54be 81ec 7cbe 5ef6 783e 3ed5 03be
00000070: 98f3 a53e 9497 c53c c1ea 83bd 9802 86be
00000080: 1745 8e3e 90b7 c2bc e6ed 90be 5ab9 04be
00000090: 1746 81be 2057 033e d31f 873d dbe2 6d3e
000000a0: 8050 c13d cec7 adbe 5a53 abbe 4e32 253e
000000b0: 8a6b 973e 8d7b acbe 3b8f 05be 08dd 083e
000000c0: 0745 103f b5bd 5ebe 2821 593d a243 0cbe
000000d0: 9bf4 a33e c3a5 e3bd 69cd 843e c5d4 9d3e
000000e0: ccf7 0f3e d4aa 6e3d d0d3 c43e 6159 b03e
000000f0: 6cbe 45be 6d53 4d3e bab3 36bd 00be b43e
0.13022137 -0.14327794 0.18734324 -0.08222095 -0.3082935 0.24732502 -0.20914543 0.11471935
0.050874967 0.16529505 -0.11800504 -0.07105843 -0.10314595 -0.20933814 0.1376906 0.3665707
0.31015962 -0.3099003 -0.11096593 0.006214912 0.23789169 0.24438684 -0.29171175 0.043927394
-0.20768665 -0.24699594 0.24312732 -0.12874314 0.3241241 0.02412013 -0.0644126 -0.26173854
0.27787086 -0.02376917 -0.28306502 -0.12961331 -0.25248787 0.12826204 0.06597867 0.2323107
0.09439182 -0.339415 -0.3346203 0.16132471 0.29574233 -0.33688012 -0.1304292 0.13365567
0.5635533 -0.21752055 0.053010136 -0.13697675 0.32022557 -0.11115601 0.25937966 0.30826393
0.14059371 0.058268383 0.3844285 0.3444319 -0.19310921 0.20051356 -0.044604994 0.35301208

arith.constant1 f4 [64, 128]
00000000: 3bfe 1c3e 5dac 463c af1a 1bbd a484 efbd
00000010: 66ae 083e 5836 273d 9dce debd 3595 d63d
00000020: f65b 2d3e 6d3e 1abd bf89 ab3d 5945 293e
00000030: 7770 393e 7614 183e 1a1e 053d e81d b53d
00000040: f8a4 20be 5789 053d a5f6 2c3e 1368 adbd
00000050: 9e5a 8abd 18f5 373e 2a38 b93d da7f cd3d
00000060: 53f6 dabc f189 cabd df5f 4abc 48db fabd
00000070: 2178 a2bc 20ec d8bc d1d0 6e3d 9e15 11be
00000080: 608e 53bd f263 edbd 0859 03be 467e f2bd
00000090: 2fd6 03b9 622c 24be b2d3 e73d a00b 0cbc
000000a0: b926 c8bd f19a 0dbe d71b 863c e207 38bd
000000b0: f14a 96bd d159 173e f770 003d 64c5 2c3e
000000c0: 183f 26be 98e7 5ebd 8e75 0dbd a9d1 b4ba
000000d0: 0bcd 88bd f38b 373e ba10 31be e82d 2abe
000000e0: 3996 85bd c689 29be ce33 0cbe 31cd ef3c
000000f0: 7376 eebd 0c2b e03d 520b 823d 93a5 7abd
00000100: 1e55 43bc 7503 0a3e a583 ce3b 2f9d adbc
00000110: 9c6a 0ebe dfba b2bd f5a4 30bd a330 06be
00000120: c937 17be 3543 943d 9076 3f3e 26fc f43d
00000130: 85da 75bd 1dc8 aebd 55ab c7bd 2db4 fa3c
00000140: a7c9 033e 85e4 21be 79df d7bd 689f 7fbc
00000150: 98a8 003e e705 ad3d 9d05 0abe 1062 9d3d
00000160: 25a2 8a3d c2d9 24be b1d6 c23d ca17 223e
00000170: 7947 173d 94ca 88bd 7683 69bd c797 cebd
00000180: 6648 29bd 0553 273d 490a 1dbe 4557 39be
00000190: c206 63bc 408a e2bd 086e 10be c6fd e6bd
000001a0: 7d73 cf3d 823d cdbd 8f87 ffbd dd30 15be
000001b0: 7271 253e 9f3d 0d3d 979b aebd cbc9 aabd
000001c0: 05fe 313e 5272 6d3d 239d 1cbe 930c 29be
000001d0: a838 073e f7b1 b63d f8d8 d53d 373f 2d3d
000001e0: 2626 163e 7600 92bd 1dfa cd3c 69d0 11be
000001f0: 767f 85bd e866 01be d1b5 37be 3100 913d
00000200: a9ec b1bd 390b 163e 28b1 9c3d 1fad 39bd
00000210: 3f3d bbbd 56e0 f53d 6bc2 22be 4cc0 84bc
00000220: 4b94 11be 3bee 9b3d 6842 f7bd 1233 04be
00000230: 2618 783d 63a0 943d 0492 0f3e 113f abbd
00000240: ad52 343e a3cf 1cbe c5c1 14bd 5d59 fbbc
00000250: 96fe aa3d f32f 8abb d00f 303e 5ab6 f83d
00000260: c727 013e f043 3b3e fe2e 863c f580 f4bc
00000270: 581a b53d 8834 a9bd 85cd e13d 00cb 303d
00000280: ed91 a5bd db8f 623d d3ef 21be fd01 ae3d
00000290: d2c8 a7bd db6d b73d 8d55 193e 633a 04bd
000002a0: a488 83bd d7b4 8cbd a903 4a3e dc8d ccbd
000002b0: e852 d6bd 058b bb3c dfc2 f3bd 15b2 bebd
000002c0: 0f63 703d 580a 753c 1577 9e3d 92a2 18be
000002d0: c56e f1bc b04a 163e cf64 5fbd c473 3ebc
000002e0: 0446 363c 3c81 8e3d 7152 2dbe 7e6a 9abc
000002f0: 22c9 c1bc cc0f d43d 7b66 e73d 6d2f 983d
00000300: a250 b6bd d8df dfbc 5835 143e f785 74bd
00000310: 14e2 aa3d 86b6 96bc c0c2 5b3d 76bf 913d
00000320: 5e57 15be 5f79 0f3e 5590 f1bd 9b99 e73c
00000330: 0ff9 eebd f826 9b3d 0c07 d63d 02f6 d0bc
00000340: 6470 1ebe 4fb8 60bd 291e 19be b83b 32be
00000350: 8aa3 8f3d e3c2 42bc 7698 7ebd ef5e dc3c
00000360: c7d6 ebbd 0ac0 07bd bc15 0f3e b247 dfbd
00000370: d566 b93d 0407 333e d98a e4bd 2215 093e
00000380: b391 b03d 0680 1d3e 10b3 043c 14b3 b73d
00000390: d3b2 253e ec76 d03a 5eb1 d43d d8bc 163e
000003a0: 29e9 ebbd 9b6a b13d e9ed 3e3d 986e 09bd
000003b0: 847e 4dbc 280a 3ebd 99bf d63d 881a 1c3e
000003c0: 2b37 933d c8a2 2d3e f10a 733d 6cb6 383d
000003d0: edff 1abd 96ad 6abd eb6c 0fbe 7cf5 ad3d
000003e0: 6ee7 d2bd cd8d 89bc ed51 b83d 5ae7 1e3e
000003f0: b950 17be e108 9bbd f3f5 bc3d 7567 4ebd
0.15331356 0.012126056 -0.037867244 -0.11695221 0.13347778 0.04082331 -0.10879252 0.10477678
0.16929612 -0.03765719 0.08375882 0.1653036 0.18109308 0.14851555 0.03249941 0.08843595
-0.1568793 0.03260168 0.16890962 -0.08467116 -0.06755565 0.1796459 0.090439156 0.100341514
-0.026728785 -0.098895915 -0.012351959 -0.12248856 -0.019832673 -0.02647978 0.05830461 -0.14168403
-0.05164945 -0.11591329 -0.12826931 -0.11840491 -0.00012572923 -0.16032556 0.113196746 -0.0085476935
-0.09773011 -0.13828637 0.016370697 -0.044929393 -0.07338513 0.14780356 0.03135773 0.16872174
-0.16235006 -0.054420084 -0.034535937 -0.0013795394 -0.06679734 0.1792448 -0.17291537 -0.16619074
-0.06522793 -0.16556463 -0.13691637 0.029272648 -0.11643686 0.109457105 0.063498154 -0.06119306
-0.011922149 0.13477881 0.0063023143 -0.021193115 -0.13907856 -0.08727049 -0.043126065 -0.13104491
-0.14767374 0.07239381 0.18697572 0.11962156 -0.06002285 -0.08534262 -0.09749476 0.030603493
0.12869893 -0.1580983 -0.10540671 -0.01560197 0.12564313 0.084483914 -0.13478704 0.076847196
0.06769208 -0.16098693 0.095136054 0.15829387 0.036933396 -0.06679264 -0.057010137 -0.10087543
-0.04132881 0.040850658 -0.15335955 -0.18099697 -0.013856592 -0.11061525 -0.14104474 -0.11278872
0.101294495 -0.10021497 -0.124770276 -0.14569421 0.16156557 0.034482595 -0.0852577 -0.0833927
0.17382057 0.057970352 -0.15294318 -0.16508703 0.13205206 0.08920663 0.10441774 0.042296614
0.1466299 -0.07128994 0.025143677 -0.14239658 -0.06518452 -0.12636912 -0.17940451 0.07080115
-0.086877175 0.14652719 0.076509774 -0.045331117 -0.09142541 0.12005679 -0.15894477 -0.016204976
-0.14216726 0.07613798 -0.12073213 -0.12910107 0.060569905 0.07257154 0.14020544 -0.08361638
0.17609663 -0.15313582 -0.036317606 -0.03068226 0.0834934 -0.004217142 0.17193532 0.12144156
0.1261283 0.18287635 0.01637983 -0.029846648 0.08842915 -0.08261973 0.11025528 0.043162346
-0.08084474 0.055312973 -0.15814142 0.08496473 -0.081926 0.089565 0.14974041 -0.032282244
-0.064225465 -0.0687043 0.19727959 -0.09987995 -0.10465032 0.022893438 -0.11902403 -0.0931131
0.05868822 0.014956079 0.07737557 -0.14905766 -0.029471764 0.14676929 -0.054539498 -0.01162428
0.011125091 0.06958243 -0.1692598 -0.018849608 -0.023655478 0.103545755 0.112988435 0.07430921
-0.08902098 -0.027328417 0.14473474 -0.05969807 0.08343902 -0.01839758 0.053652525 0.071165964
-0.14584109 0.14011143 -0.11795107 0.028271487 -0.11668598 0.07575792 0.10450563 -0.02550793
-0.15472561 -0.05486327 -0.14952911 -0.17405593 0.070136145 -0.011887285 -0.062157117 0.026900737
-0.11515575 -0.033142127 0.13973135 -0.10902347 0.09052817 0.17483145 -0.111592956 0.13386968
0.0862154 0.15380868 0.008099332 0.08969703 0.16181497 0.0015904582 0.103853926 0.14720476
-0.11519081 0.086629115 0.046613608 -0.033552736 -0.012542371 -0.046396405 0.10485763 0.15244496
0.07188257 0.16956627 0.059336606 0.045095846 -0.037841726 -0.05729445 -0.14006393 0.08494088
-0.10298048 -0.016791249 0.09000001 0.15517941 -0.14776887 -0.07570053 0.092265986 -0.050391633

arith.constant2 f4 [128, 12]
00000000: ca68 e53c d910 103e 38bf 18be a110 d03d
00000010: 8dd1 b2bd e692 023d 6df9 c5bd 78ae 0e3e
00000020: 80a5 dc3d 8ce6 55be 871a 1d3e 28b8 94bd
00000030: 2bb4 fdbd 2148 aabb 8547 583d 3a10 403e
00000040: 06c5 86bd 5e1e 8b3d 09fc 1fbe 1783 33bb
00000050: 1a29 1cbd 6f7b c93d 2b43 663c ec08 5f3e
00000060: 0a74 413e e9e3 a4bd c0b9 08be 8190 d73c
00000070: 0503 ca3d 0bdb 95bd 8231 a8bd 1787 803c
00000080: 193c 003e 3057 e93d f1b7 b53d 2357 823d
00000090: 230e a8bd 2e83 fc3d c63e b4bd c4ce 333e
000000a0: 1cba ffbd c5ca 903d 4935 3fbe 5d60 283d
000000b0: bf34 ffbd 8061 a43d 4ec0 1abd fabb 03bd
000000c0: 3d8e 5a3c b863 a93d 82c2 57bc f423 52bb
000000d0: 8a26 0e3e 66ae e0bb d8dd e7bc 2e58 69bd
000000e0: 8223 2ebe 6bf1 6b3d c667 f53d 214d 8a3e
000000f0: 422f 213e 59c4 29be c22f 8fbc 1168 1d3e
00000100: 4730 553e 3ea9 c0bd 4cb4 ee3d 422f 723d
00000110: 07bb dabd 9583 babd 877c 3abe 4dcb bd3d
00000120: 5140 9bbe 1af1 a03d a64e 8b3b b2ae 0fbe
00000130: eb56 f2bb 1a29 28be c0f8 a53d 4d96 9bbd
00000140: dd62 ff3d 2d38 2bbd c139 81bd 9956 ef3d
00000150: 2472 4f3e aa27 48bd 8ac0 9a3d a3f0 863d
00000160: ef30 233e 6c61 14be 2491 943d ceea eabd
00000170: 506e b1bd 193f b03d 2084 4ebb d823 f33d
00000180: 69cf 573e bcd6 fc3c 7c04 00be a3e6 183d
00000190: 9aa6 73bd fd18 663e d42f f7bd 0475 9e3d
000001a0: ad25 1b3e 78f0 553e 7053 c33d 6f67 c3bd
000001b0: 6785 a13d 09cd 873c f896 013e d16f c3ba
000001c0: e194 3cbe 8f93 4e3e 31fa 333e 6aea da3c
000001d0: 50ab 12be 7d88 c63d e28f 213e 7cb4 303e
000001e0: 6f83 a43d 9b01 b8bd fcad 243e 3861 1c3d
000001f0: cc6f 8a3d 77c7 2cbe 4c88 d8bd cd0f 75bd
00000200: 2ea5 10be 6244 ffbd f4aa 193e dbbb de3c
00000210: 6881 05be 2dce 163c 5f0c 1cbe 85b3 dc3c
00000220: 2fdd f9bd 71a6 87bc 1785 823e bc72 ac3b
00000230: bfce 963d ee4c 94bd 4226 18bd e1ba 813e
00000240: 13d3 443e c714 0cbe 0ba2 bfbc 9b39 a53d
00000250: 8daf f6bd 8685 fa3c 3b95 6bbe bd24 9bbc
00000260: 0b0d e63d 01ae 9f3d b6eb 1cbc d8f1 1dbe
00000270: 57d4 243d 97a4 8f3d 6e00 f5bd a39d 6dbd
00000280: ff21 30be 9c54 143e fd7e 1e3e 7b1b 32be
00000290: da9c c93d a1e3 4a3d 503f 383e 8713 2bbe
000002a0: 902b 4d3c 3133 183d 1738 c63d 693a 1f3e
000002b0: 25c1 3d3e 75a4 173e e613 dcbd 5721 ce3d
000002c0: 43e7 31be 1395 34be afa8 95bd d913 7b3d
000002d0: 1b24 843d 1786 88ba 8839 a9bd 4e14 803d
000002e0: 403c cdbc 6f8a 33be 9b44 32be 4b06 623d
000002f0: f976 2e3e 19e1 b0bd 5ab5 f73d ee6a 4f3d
00000300: 7305 6b3c ec41 6abd c88a 9e3a 390c 4b3e
00000310: 4ca4 4fbc cb78 5bbd 24a5 923d cc07 103e
00000320: 0b8f 3a3e 329e 5bbe 7794 2f3e 8e03 823d
00000330: 6891 87be c517 cd3b 6a28 153e 63c0 30bd
00000340: 1341 a13c a038 0e3e ee08 dd3d 7973 bdbc
00000350: acbc 45be 6cd6 6abd d319 dfbd b18c fcbd
00000360: 39b7 7d3d aea1 fd3b 9636 07be 3423 14bc
00000370: 40ee 7c3c 8c22 cabd 9dda 3bbe 75a5 043e
00000380: 3a02 21be b84f 15be 008d ff3a b63d 843d
00000390: 5500 8bbd ea38 443e 6819 d33d afad d53d
000003a0: 9a4f 6c3d eaa4 e8bb 841b 8b3e a0e4 31bd
000003b0: 0b48 723c ff1f 37be 71ed 73bd edb4 c7bc
000003c0: 9dea 013e 5ed3 03be e10d f23d 9174 50bd
000003d0: 871b fd3d eab8 713d 5ef8 e1bc fb21 82bc
000003e0: ddd2 00be e75e 00be 0ab9 9b3c 08d9 2c3e
000003f0: 668d fc3d 2f36 4ebe 66cb 6c3e 48d3 32be
0.028004069 0.14068927 -0.14916694 0.10159422 -0.08731375 0.031878375 -0.09666715 0.13933742
0.10773754 -0.20888728 0.1534215 -0.072616875 -0.1238788 -0.0051965867 0.05280258 0.1875619
-0.06580548 0.067929015 -0.15623488 -0.0027391368 -0.038125135 0.09837996 0.0140541 0.21780747
0.18891922 -0.08051283 -0.13352108 0.026314022 0.09863857 -0.0731717 -0.08212568 0.015689416
0.12522925 0.11393583 0.08872975 0.06364276 -0.08205821 0.12329708 -0.088010356 0.17559344
-0.124866694 0.07069925 -0.1867267 0.041107524 -0.124612324 0.08026409 -0.037781052 -0.03216169
0.013339576 0.08270973 -0.013168933 -0.0032064887 0.13881889 -0.0068567274 -0.028304026 -0.05696886
-0.17005733 0.05760328 0.11982684 0.2701197 0.15740684 -0.16578807 -0.017478827 0.1537173
0.20819198 -0.094072804 0.11655483 0.0591271 -0.10680204 -0.091071285 -0.18211566 0.09267292
-0.30322507 0.078584865 0.004251319 -0.14031485 -0.0073956153 -0.16421929 0.08104086 -0.07597027
0.124700285 -0.04180162 -0.06309844 0.11686439 0.20258385 -0.04886595 0.07556255 0.065888666
0.15936635 -0.14490288 0.07254246 -0.11470567 -0.086636186 0.08605785 -0.0031511858 0.11872071
0.21075214 0.030864112 -0.1250171 0.037329327 -0.059485056 0.2247047 -0.12069669 0.07737163
0.15151091 0.20892513 0.09537399 -0.09541213 0.078867726 0.01657726 0.12655246 -0.0014910643
-0.18416168 0.20173477 0.17575909 0.026723105 -0.14323163 0.09694002 0.15777543 0.1725635
0.080328815 -0.08984681 0.16081995 0.038178653 0.06759605 -0.16872965 -0.105728716 -0.059829522
-0.14125511 -0.12464215 0.1500662 0.027189186 -0.13037646 0.00920443 -0.15239094 0.02694107
-0.122003905 -0.016558858 0.25492164 0.005262701 0.073636524 -0.07241236 -0.03714586 0.2533789
0.19221143 -0.13679801 -0.023392698 0.08067628 -0.120452024 0.030581247 -0.23006146 -0.018938417
0.112329565 0.077968605 -0.009577682 -0.15424287 0.040241566 0.07013815 -0.119629726 -0.058011662
-0.17200468 0.14485401 0.1547813 -0.17393295 0.0984437 0.04953349 0.17992902 -0.16706668
0.012522593 0.037158195 0.09678667 0.15549625 0.1853071 0.14808829 -0.10745983 0.10064953
-0.17373376 -0.17634992 -0.073075645 0.061298225 0.06452199 -0.0010415938 -0.08262926 0.06253873
-0.025053144 -0.17533277 -0.17408983 0.055181783 0.17037572 -0.08636684 0.12095137 0.050639085
0.014344561 -0.057191774 0.0012095803 0.19828881 -0.012673449 -0.053581994 0.07160404 0.14065474
0.18218629 -0.21447065 0.17146479 0.06348334 -0.26478124 0.006258937 0.14566198 -0.043152224
0.01968435 0.13888788 0.10792719 -0.02312635 -0.19310254 -0.057333395 -0.108935975 -0.12331522
0.061942313 0.007740221 -0.13204417 -0.009041596 0.015437663 -0.098698705 -0.18345113 0.12953742
-0.15723506 -0.14581192 0.0019496977 0.06457083 -0.06787173 0.19162336 0.1030758 0.10433518
0.0576931 -0.0070997374 0.2716943 -0.043430924 0.014787684 -0.178833 -0.059552614 -0.024378264
0.12687154 -0.12873599 0.118190534 -0.050892416 0.12358766 0.05901424 -0.027584251 -0.015885344
-0.12580438 -0.12536202 0.019009132 0.16879666 0.12331657 -0.20137857 0.23124465 -0.1746341

arith.constant29 f4 [64]
00000000: bc39 893c a4e2 34bd d97c 713d b462 80bc
00000010: f683 8abc 337c fa3d 26d4 8dbd b604 47bc
00000020: eac3 9e3c ce5d d4bb 26e3 943c 24ac 17bd
00000030: 3baf 83bc cb75 d0bb 2ecd 823d d35c d43d
00000040: 13fe 5f3d cf6e 2fbd 2e6f eb3b 482a 0abc
00000050: 8072 813d 4a7a dcbc d831 593c d255 233c
00000060: ad7f 8cba a094 1dbd 345f a53d 2932 553c
00000070: 5e9e a03d a96a 083b 315e e13b b470 1bbd
00000080: 0e28 153d da74 cb3a 66a0 9fbc aaf5 2d3c
00000090: 8841 6ebd 25cf 85bd af62 bdbc c514 a93d
000000a0: d517 7dbd 9bfd 9bbd 2e23 d3bc adf7 41bd
000000b0: e335 5a3d 535a b5bd 818a f9bb 4298 9abc
000000c0: fe73 2bbe 3464 86bc f095 f6b7 4cf7 c8bc
000000d0: d68e bf3d 6435 60bc 934f 343c 71c5 133d
000000e0: 1b8c 0f3d 6f46 e53b c1c3 d73d 0d7c 873d
000000f0: e1db 14bd d749 073c bf80 a9bc bf44 ac3d
0.016751163 -0.044161454 0.058956955 -0.015672065 -0.016908627 0.1223072 -0.0692523 -0.012147119
0.019380528 -0.006480909 0.018174719 -0.0370294 -0.016074767 -0.0063616983 0.06386791 0.10369267
0.054685663 -0.042830285 0.0071848845 -0.008432932 0.06320667 -0.02691378 0.013256513 0.009969192
-0.0010719203 -0.038471818 0.08074799 0.013012447 0.07842706 0.0020815528 0.0068776836 -0.03794928
0.036415152 0.0015522495 -0.019485664 0.010617653 -0.058167964 -0.0653365 -0.023118345 0.082559146
-0.061790306 -0.07616731 -0.02577361 -0.047355343 0.053274047 -0.088551186 -0.007615388 -0.01887143
-0.16743466 -0.016405202 -2.9395305e-05 -0.024531983 0.09353416 -0.013684604 0.0110053 0.036076967
0.035045724 0.0069969217 0.10535384 0.06615458 -0.036342505 0.008257351 -0.020691274 0.0841155

arith.constant30 f4 [128]
00000000: eec7 8eba cc5c e13c 90bd 913c 1c3b 81bd
00000010: 73d1 703d e05d 4139 209b 3bbd e84a 0f3d
00000020: 69bc babd 9250 ed3c 363e 22bd 15a9 ad3c
00000030: 1894 d3bc cfaf 17bc 9b04 04bd 26f7 783d
00000040: 13e5 1e3c 7a97 33bd 0757 95bd 5864 063d
00000050: e878 963d ddc2 ec3c 881c 1bbd f6a1 8dbd
00000060: 4e46 0b3d 5180 6e3b 02df 99ba 5553 5dbb
00000070: 18bc 1abd fa1e 0dbd a49e 0e3d 1c3d ebbc
00000080: c781 09bd f80f fabc 6274 ae3d ec5b 2bbb
00000090: 3cf1 29bd c377 743c fcd0 8cbc b73f 6abd
000000a0: b720 ef3b 1bf8 abbd 1f64 06bc 1edf 97bc
000000b0: 090e 38bd 853d 583c 1e9d 04bd 8efc e3bb
000000c0: 5a32 c9bc e5a0 81bd 1778 02bc ea3a 353d
000000d0: 4845 a33d b336 c13c 455e 5f3d 7f16 cebb
000000e0: 65f5 a0bc 3948 73bd 0c1a 783d d6f5 22bc
000000f0: 37f1 05bd 5f7d 923d f559 05bc ffef b83c
00000100: 52fd 973c 6e9e 833d 522a 40bc 0034 c0bd
00000110: fe2f 8dbd 51ad 18bb 72a5 7e3d 76cc a7ba
00000120: 75a8 bbbc 0d4b 023d d5df c3bd 7844 4f3d
00000130: 35bb 8e3d 8b3a 0e3d 8f00 2f3d 6421 263b
00000140: e367 863a c132 913c d1cb 8ebd 113f 7cbc
00000150: 71f6 8f3d 1803 ef3d a7c0 4bbd ca27 8fbd
00000160: eaae 963d 3801 e6bb 75d6 05bd 6bf2 193d
00000170: ca9b 76bd f490 c33d f5d3 4abd b8a4 a73c
00000180: e8cb 8bbc 8112 12bc 5b91 aebc d9dd 29bc
00000190: 4028 963b 7aec 043d 2179 bdbd e87a 8ebd
000001a0: eef5 45bb 26d9 17bd 6534 6b3c cc1c babb
000001b0: e310 d33c 52ff 04bb 6c22 f9bd f45e 91bd
000001c0: 14ce c4bb c42b 44bc e2e0 13bd bc1b c43d
000001d0: de9f d73b e069 183c 6f1f a8bd c287 2d3c
000001e0: 2554 4ab9 6805 60bd 6af5 28bc 921f d43c
000001f0: 1cba 673d 5520 1fbd 85d6 1f3d 2002 adbc
-0.0010893324 0.02751007 0.017790586 -0.06310102 0.058793496 0.00018440885 -0.045802236 0.034983546
-0.09117968 0.028969083 -0.03961011 0.021198789 -0.025827453 -0.009258225 -0.032230955 0.060782574
0.00969817 -0.04384563 -0.0729199 0.03281054 0.0734728 0.028901512 -0.037869006 -0.06915657
0.034002595 0.00363924 -0.0011739435 -0.0033771594 -0.037777036 -0.03445337 0.03481926 -0.028715663
-0.03357103 -0.030525193 0.08518292 -0.002614732 -0.041489825 0.014921132 -0.017189495 -0.05718967
0.007297601 -0.08396932 -0.008202582 -0.018539008 -0.04493526 0.013198261 -0.0323764 -0.006957597
-0.024560142 -0.06329516 -0.007963202 0.044245638 0.07972199 0.023585653 0.05453326 -0.006289303
-0.019648263 -0.05939505 0.060571715 -0.009946307 -0.032700744 0.07152819 -0.008139123 0.022575377
0.01855341 0.064267024 -0.01172884 -0.09384918 -0.068939194 -0.0023296664 0.0621695 -0.0012802023
-0.022907475 0.031809855 -0.09564177 0.050602406 0.06969301 0.0347238 0.042725142 0.0025349492
0.0010254349 0.017724397 -0.06972469 -0.015395896 0.07029427 0.11670512 -0.049744274 -0.06990011
0.07357581 -0.0070191883 -0.032675225 0.037584703 -0.060207166 0.09549132 -0.049518544 0.020464286
-0.017065004 -0.0089155445 -0.021309545 -0.010367834 0.004582435 0.032452084 -0.09251619 -0.06957036
-0.00302064 -0.037072323 0.014355754 -0.0056797024 0.025764888 -0.0020293784 -0.121647686 -0.07098189
-0.0060060117 -0.011973325 -0.036103137 0.095756024 0.006580337 0.009302586 -0.082091205 0.010591449
-0.00019295567 -0.054692656 -0.0103124175 0.02589396 0.056573972 -0.038849194 0.03902294 -0.021119177
