CSSxe/Chrome/Profiles/optimization_guide_model_store/20/E6DC4029A1E4B4C1/33E1D355B8A65325/model.tflite (tflite, 64824 bytes, 5 tensors)

arith.constant f4 [1, 64]
-0.27112684 -0.19398004 -0.1684623 -0.21900247 -0.061627585 -0.25545898 -0.20962003 0.23368509
0.07596068 -0.2969462 -0.26710933 0.030333899 -0.07119637 -0.1786071 -0.22575653 0.32996964
0.40874878 -0.33737773 0.30094415 -0.1730423 0.269388 0.050061632 -0.21017593 0.2913391
-0.07971327 0.13700566 0.024780298 -0.07987636 -0.00019751584 -0.12361063 0.5487393 -0.16905186
0.2015094 0.076166354 -0.07802355 -0.3653964 -0.18880932 -0.20412894 0.03658422 0.28403988
0.28913713 0.09836131 0.20966579 -0.33238235 0.06887408 -0.08270195 -0.3621536 -0.15485486
0.06233863 -0.37789908 0.048277773 0.3763604 -0.16737716 -0.23689586 0.35992697 0.32003704
0.3940461 -0.22426167 -0.20133358 0.30643976 -0.15547054 0.085689515 0.19050656 0.013375562
00000000: 23d1 8abe b4a2 46be 6281 2cbe 2f42 60be
00000010: 356d 7cbd 85cb 82be a2a6 56be 254b 6f3e
00000020: 4691 9b3d 5509 98be 8ec2 88be cc7e f83c
00000030: 67cf 91bd c8e4 36be b82c 67be c8f1 a83e
00000040: 8547 d13e c6bc acbe 5a15 9a3e 0032 31be
00000050: 39ed 893e 6d0d 4d3d 5c38 57be 662a 953e
00000060: b640 a3bd 364b 0c3e 0d00 cb3c 3896 a3bd
00000070: 411c 4fb9 9227 fdbd 2e7a 0c3f ee1b 2dbe
00000080: 7b58 4e3e 1bfd 9b3d d0ca 9fbd 3d15 bbbe
00000090: 3b57 41be 2d07 51be 56d9 153d ad6d 913e
000000a0: c809 943e a871 c93d a1b2 563e 052e aabe
000000b0: db0d 8d3d a45f a9bd 326c b9be 4692 1ebe
000000c0: cb56 7f3d fd7b c1be eabe 453d 4fb2 c03e
000000d0: eb64 2bbe d494 72be 5948 b83e e5db a33e
000000e0: 69c0 c93e daa4 65be 642a 4ebe ace5 9c3e
000000f0: ab33 1fbe fc7d af3d 2714 433e 2c25 5b3c

arith.constant1 f4 [64, 128]
0.1151868 -0.09264671 0.013747165 -0.0025631355 0.056771696 0.010682118 0.107105985 0.14946811
0.17930837 -0.083502404 0.19769222 0.107703894 -0.10862149 0.19859141 -0.148866 0.13446566
-0.08476886 0.09106013 -0.1310839 0.0271481 0.13396019 -0.022719145 -0.108525164 -0.16894463
0.15967527 -0.08279385 -0.08592319 -0.13017638 -0.083987236 0.05777003 -0.05318821 0.060955767
-0.026590005 -0.0686586 0.05372926 -0.12618534 0.17920889 -0.019060394 -0.08544413 0.08289119
-0.12369772 0.18445227 0.013512369 0.20576516 -0.10009257 0.08538945 -0.06158284 -0.12266551
0.0061808513 0.013328671 -0.03604983 0.19518754 0.06293777 0.17091197 0.15561023 0.13765763
-0.15382057 -0.092393726 0.16326737 0.0931761 0.1615596 0.0004165657 0.10662569 -0.097366385
0.09152277 -0.03979376 -0.18711436 0.019311475 0.12953225 -0.16732167 0.15389267 -0.07638046
-0.123964705 0.066469885 -0.14295442 -0.14474967 -0.118006736 0.018881416 0.057992954 0.15000544
-0.0853649 0.108238846 0.07322121 -0.0010994365 -0.07421491 -0.110483274 -0.14581518 0.14482743
-0.12019904 0.14489639 -0.056582376 -0.082620576 -0.12937234 -0.07810577 0.01837602 -0.16198769
-0.10330433 -0.06731629 0.1590069 0.021107398 -0.0014021568 -0.047515284 0.06067114 -0.02990868
0.16334869 0.16468094 0.15770718 -0.019772304 -0.109502815 -0.1271651 0.1422198 -0.104358084
0.058397755 0.13378775 -0.14296728 -0.15964293 0.041234728 0.15207052 -0.10625314 0.031309783
-0.032127887 -0.05161027 -0.16878383 0.042479146 -0.02943775 -0.12125061 0.060578775 0.17390506
0.04604708 -0.00011697981 0.13027446 -0.18526413 0.019045344 0.025633382 0.14372624 -0.06583608
0.10055845 0.10030884 0.09185474 0.12647778 0.13058953 0.035280768 -0.14771527 0.06643526
0.16453831 -0.00506489 0.036162794 0.0135555435 0.0110036805 -0.16168153 -0.13917503 -0.0037346263
-0.14869902 -0.048335418 -0.07693967 0.009739838 -0.13240394 0.08941314 -0.16348577 -0.03885329
0.09495581 0.1258603 -0.051868122 -0.078478254 -0.1725747 -0.081836 -0.09467909 0.1421858
0.12525703 -0.09730103 -0.09837102 0.11618087 -0.12851274 0.06521704 -0.06468269 -0.07695246
-0.18030323 0.13549933 0.027745252 -0.059534103 -0.048494518 0.14888404 0.0040305746 -0.13398638
-0.07855853 -0.05505401 -0.10038628 0.18660612 -0.13340287 0.074605465 0.054897178 -0.15253963
-0.071281575 0.028618302 -0.16629873 0.19713508 -0.16054706 -0.035455916 0.19060905 -0.1376129
-0.09868085 -0.053835217 0.13749449 0.04460073 0.117315456 0.1999804 -0.023455348 -0.00049772573
0.14845598 -0.02407367 -0.06456944 -0.02261105 0.12475954 -0.14082924 -0.15692852 0.03712647
0.019204658 -0.064567216 0.20168191 -0.18546264 0.12432997 -0.056697667 -0.05181635 0.04169704
-0.042560227 0.004734304 0.0072420537 0.1369809 -0.13894671 0.032382872 0.11122128 -0.12346688
0.15371464 -0.049877625 0.037200697 0.033653617 0.042433012 0.06176923 -0.09482396 -0.03831579
-0.034986984 -0.03355797 -0.13310188 -0.13983412 -0.047142036 0.11563483 -0.08259219 -0.11296487
0.016785929 0.037508633 -0.05628099 0.13165078 -0.06247595 0.07158215 -0.10958183 0.12552366
00000000: 0fe7 eb3d 8fbd bdbd ca3b 613c 47fa 27bb
00000010: 7089 683d 0d04 2f3c 625a db3d 2b0e 193e
00000020: 9d9c 373e 4f03 abbd d46f 4a3e dc93 dc3d
00000030: f274 debd 8c5b 4b3e 5470 18be 5eb1 093e
00000040: 4c9b adbd bc7d ba3d dc3a 06be b165 de3c
00000050: dc2c 093e 801d babc 7142 debd d2ff 2cbe
00000060: ea81 233e d28f a9bd 7ff8 afbd f54c 05be
00000070: 8001 acbd 44a0 6c3d e1db 59bd c1ac 793d
00000080: 48d3 d9bc e19c 8cbd 3613 5c3d bb36 01be
00000090: 8982 373e 8b24 9cbc 55fd aebd dbc2 a93d
000000a0: 3b55 fdbd 0ee1 3c3e fc62 5d3c 1ab4 523e
000000b0: 55fd ccbd aae0 ae3d 4a3e 7cbd 0e38 fbbd
000000c0: bd88 ca3b 8060 5a3c fda8 13bd 3edf 473e
000000d0: 84e5 803d 8c03 2f3e 4a58 1f3e 1ff6 0c3e
000000e0: 2483 1dbe ec38 bdbd 902f 273e 1cd3 be3d
000000f0: e16f 253e 8066 da39 925e da3d 0768 c7bd
00000100: 4a70 bb3d c8fe 22bd e89a 3fbe 1933 9e3c
00000110: 1aa4 043e 5f56 2bbe 0a96 1d3e 5c6d 9cbd
00000120: 35e1 fdbd 5d21 883d a562 12be 4239 14be
00000130: 84ad f1bd 33ad 9a3c 058a 6d3d 079b 193e
00000140: cbd3 aebd 54ac dd3d 00f5 953d f81a 90ba
00000150: fdfd 97bd 0e45 e2bd 9350 15be a44d 143e
00000160: ea2a f6bd b85f 143e ecc2 67bd fa34 a9bd
00000170: 2f7a 04be ebf5 9fbd 4f89 963c 1ae0 25be
00000180: 3891 d3bd 20dd 89bd b4d2 223e 6ce9 ac3c
00000190: 93c8 b7ba 639f 42bd 4d82 783d 0c03 f5bc
000001a0: e144 273e 1fa2 283e fe7d 213e 87f9 a1bc
000001b0: 0343 e0bd 9137 02be 11a2 113e b1b9 d5bd
000001c0: 7c32 6f3d a8ff 083e 0466 12be 7079 23be
000001d0: bfe5 283d 60b8 1b3e 3f9b d9bd b03e 003d
000001e0: 8898 03bd 4a65 53bd abd5 2cbe 9dfe 2d3d
000001f0: 7027 f1bc 3d52 f8bd 7321 783d 2b14 323e
00000200: dd9b 3c3d 0f53 f5b8 ab66 053e e1b5 3dbe
00000210: fb04 9c3c 19fd d13c f92c 133e 11d5 86bd
00000220: 97f1 cd3d b96e cd3d 571e bc3d 6483 013e
00000230: 43b9 053e 9182 103d ac42 17be 360f 883d
00000240: bb7c 283e 60f7 a5bb 701f 143d 1218 5e3c
00000250: c848 343c d88f 25be e683 0ebe a2c0 74bb
00000260: 8e44 18be 5cfb 45bd 8c92 9dbd d793 1f3c
00000270: e694 07be 3d1e b73d d068 27be a124 1fbd
00000280: 3178 c23d 86e1 003e ab73 54bd 35b9 a0bd
00000290: 6cb7 30be a299 a7bd 1ce7 c1bd 2899 113e
000002a0: 6143 003e c345 c7bd bf76 c9bd 3cf0 ed3d
000002b0: d898 03be 8390 853d 5c78 84bd 4099 9dbd
000002c0: 69a1 38be 56c0 0a3e 034a e33c 08da 73bd
000002d0: 30a2 46bd 0f75 183e e912 843b ba33 09be
000002e0: 4be3 a0bd 5080 61bd 5297 cdbd ad15 3f3e
000002f0: c39a 08be c0ca 983d dddb 603d 5933 1cbe
00000300: 13fc 91bd ee70 ea3c 374a 2abe c7dd 493e
00000310: 7366 24be 393a 11bd 052f 433e 65ea 0cbe
00000320: 2f19 cabd 5182 5cbd 5bcb 0c3e 41af 363d
00000330: 1643 f03d a9c7 4c3e 6e25 c0bc cf79 02ba
00000340: d804 183e 2536 c5bc fc3c 84bd cf3a b9bc
00000350: ee81 ff3d 8a35 10be dfb1 20be ed11 183d
00000360: 1653 9d3c d13b 84bd b485 4e3e ebe9 3dbe
00000370: b6a0 fe3d d03b 68bd 623d 54bd 84ca 2a3d
00000380: a253 2ebd 3822 9b3b c04e ed3b b944 0c3e
00000390: 0c48 0ebe e7a3 043d fcc7 e33d 34dc fcbd
000003a0: 5f67 1d3e 7b4c 4cbd c25f 183d 60d8 093d
000003b0: 3dce 2d3d bb01 7d3d 1033 c2bd 05f1 1cbd
000003c0: 834e 0fbd 1574 09bd dc4b 08be ad30 0fbe
000003d0: 0218 41bd f4d1 ec3d 1826 a9bd 205a e7bd
000003e0: a582 893c a7a2 193d e586 66bd 76cf 063e
000003f0: c8e6 7fbd aa99 923d 706c e0bd 4689 003e

arith.constant2 f4 [128, 12]
0.199248 -0.10564086 0.19138288 -0.011791359 -0.1721005 0.08241427 0.1027313 -0.121489905
-0.075825274 0.040877383 -0.14594035 -0.048243426 -0.04235255 -0.08484895 0.016415736 -0.018107152
-0.20817196 -0.03681579 -0.17131938 -0.049336288 0.064077646 -0.19266361 0.07564389 0.05287287
-0.10020347 -0.0219874 0.13775557 0.061144304 -0.030444136 -0.013058418 0.2276933 0.09759121
0.09589302 0.20308276 -0.13618974 -0.025663853 -0.022318197 -0.023300301 -0.16949344 0.007829989
0.11055902 0.03587033 0.09122237 0.10825049 -0.026680922 -0.20828736 -0.1739797 0.21113499
0.1474799 -0.12702885 -0.18456428 0.12957893 -0.034579497 -0.15291402 0.10552448 -0.11734515
-0.18677525 -0.11157929 -0.0041076625 0.19653445 0.01669897 0.0874431 0.11829024 0.2052668
0.11772176 0.1531326 -0.024288148 0.09016671 0.063474916 -0.009710819 -0.07327595 -0.1811424
0.05853226 -0.0032338575 -0.09467133 -0.17660564 -0.03175737 0.11201078 0.083202764 -0.23672198
-0.009277107 0.023927208 0.008459282 0.1293381 -0.024307733 0.13552041 -0.15400568 0.16406493
-0.143171 -0.09237059 -0.04665994 -0.089788884 0.14313382 -0.088438086 -0.1303168 -0.04691599
-0.24950753 -0.06125282 0.035572723 -0.041999627 -0.10024547 -0.07841171 0.1278888 -0.077964656
-0.058680307 -0.027672892 0.023856923 0.09131155 -0.058758836 -0.18129529 0.15142758 -0.024090586
0.05531328 -0.016889073 -0.18020792 0.14176044 0.20434128 -0.098696746 -0.2042562 -0.039456576
-0.035518214 -0.089256294 -0.11766362 0.021093167 -0.09296646 -0.17114684 0.043223966 0.033533856
0.0068047927 0.014452736 0.04741678 0.24535324 0.00015370776 -0.20843701 0.18140505 -0.005221248
0.09155888 -0.11875467 0.058550987 0.033493932 0.10093181 0.037701443 -0.17464761 0.13394004
-0.043550022 -0.15314727 0.036669362 -0.016761757 -0.08146708 -0.13372321 -0.13718234 -0.13730484
0.044457585 0.15967523 0.09289869 0.20175855 -0.096273094 0.114127584 0.104611345 -0.026380518
-0.10455717 -0.29065654 0.032573957 -0.06259931 0.02382772 0.17758036 0.008676344 -0.047356956
-0.07876122 0.1270559 0.052455183 0.018520666 0.094048075 -0.12179365 -0.12560166 -0.10458442
-0.07851266 -0.025513625 -0.13957085 0.080347925 0.024383994 -0.04651399 -0.0998386 -0.17780222
0.20955183 0.054617375 -0.13326386 -0.10276321 0.11004309 0.025397407 -0.08660387 -0.0851128
0.03815014 -0.141974 -0.004250197 0.13243282 0.014027769 -0.10232399 -0.1983355 0.16123381
-0.014212116 0.12661442 -0.16485706 0.19012766 -0.23009208 -0.07643682 0.14524579 -0.075116456
-0.077203125 0.08783597 0.23958482 0.08028623 -0.15594475 0.1918088 0.1984903 -0.24416181
0.0036947415 0.28240395 -0.22187135 -0.054544564 0.0055774464 -0.11413472 -0.02816794 -0.021726329
0.15244186 0.16479911 0.09973638 -0.21501133 -0.027190574 0.011099423 -0.13032842 0.06961924
0.026733259 -0.1898487 -0.06533414 -0.13315894 0.13719448 0.046043012 -0.12330867 0.052126378
-0.18118232 -0.0058641993 0.054278232 0.15127204 0.10715886 -0.010078079 -0.1205552 -0.03991073
-0.19004107 -0.01548956 -0.004421383 0.24513271 -0.024842199 0.045504984 0.16251588 -0.010149931
00000000: ab07 4c3e 3c5a d8bd e0f9 433e 8b30 41bc
00000010: 1d3b 30be d0c8 a83d ca64 d23d b3cf f8bd
00000020: 484a 9bbd 0b6f 273d 6371 15be e69a 45bd
00000030: de79 2dbd 49c5 adbd 4b7a 863c 7355 94bc
00000040: 082b 55be 27cc 16bd 596e 2fbe d914 4abd
00000050: 243b 833d 9c49 45be 2feb 9a3d 3991 583d
00000060: 7a37 cdbd eb1e b4bc cc0f 0d3e 7372 7a3d
00000070: fb65 f9bc faf2 55bc 6f28 693e e6dd c73d
00000080: 8f63 c43d edf4 4f3e 5375 0bbe 003d d2bc
00000090: a7d4 b6bc 46e0 bebc b08f 2dbe 5b49 003c
000000a0: c46c e23d c4ec 123d cbd2 ba3d 6fb2 dd3d
000000b0: f391 dabc 4849 55be bc27 32be c533 583e
000000c0: f904 173e da13 02be 6bfe 3cbe 57b0 043e
000000d0: 3ba3 0dbd 7e95 1cbe 381d d83d a752 f0bd
000000e0: 0342 3fbe af83 e4bd 9299 86bb 5440 493e
000000f0: 47cc 883c 5e15 b33d 2742 f23d 7631 523e
00000100: 1b18 f13d cbce 1c3e f0f7 c6bc 53a9 b83d
00000110: 23ff 813d 211a 1fbc b411 96bd 657d 39be
00000120: 86bf 6f3d 20ef 53bb 0be3 c1bd 1cd8 34be
00000130: 0414 02bd e865 e53d 3666 aa3d 3f67 72be
00000140: 02ff 17bc fe02 c43c cd98 0a3c 3571 043e
00000150: 0321 c7bc ddc5 0a3e aab3 1dbe a300 283e
00000160: 6b9b 12be cb2c bdbd 7e1e 3fbd 3ce3 b7bd
00000170: ac91 123e 071f b5bd c471 05be fb2a 40bd
00000180: e77e 7fbe 3de4 7abd b4b4 113d cd07 2cbd
00000190: 7f4d cdbd 5296 a0bd 48f5 023e efab 9fbd
000001a0: c35a 70bd 43b2 e2bc 986f c33c 8d01 bb3d
000001b0: 1bad 70bd 79a5 39be d50f 1b3e 9f59 c5bc
000001c0: 2e90 623d f45a 8abc 6d88 38be a629 113e
000001d0: d73e 513e 8521 cabd 8a28 51be 389d 21bd
000001e0: 8c7b 11bd 01cc b6bd a0f9 f0bd 94cb ac3c
000001f0: 3365 bebd 1e41 2fbe 9d0b 313d cc5a 093d
00000200: bdfa de3b 2bcb 6c3c 1938 423d e13d 7b3e
00000210: 9d2c 2139 8370 55be 3fc2 393e 0117 abbb
00000220: 3983 bb3d a635 f3bd 29d3 6f3d ef30 093d
00000230: 56b5 ce3d d46c 1a3d d3d6 32be 9427 093e
00000240: 8261 32bd a3d2 1cbe 9d32 163d f44f 89bc
00000250: 36d8 a6bd bdee 08be 8779 0cbe a499 0cbe
00000260: 2819 363d e781 233e ab41 be3d cb99 4e3e
00000270: d42a c5bd b9bb e93d 793e d63d f51b d8bc
00000280: 1222 d6bd efd0 94be 456c 053d 1134 80bd
00000290: 5a32 c33c a0d7 353e 3927 0e3c 5ef9 41bd
000002a0: 904d a1bd f11a 023e 3fdb 563d a7b8 973c
000002b0: 479c c03d f36e f9bd b99d 00be 5b30 d6bd
000002c0: 3fcb a0bd f301 d1bc a9eb 0ebe 748d a43d
000002d0: f1c0 c73c 7485 3ebd 2e78 ccbd c911 36be
000002e0: c194 563e 78b6 5f3d 5276 08be 8575 d2bd
000002f0: 465e e13d 390e d03c 5f5d b1bd 9f4f aebd
00000300: 5243 1c3d a261 11be 3d45 8bbb 789c 073e
00000310: bad4 653c 3d8f d1bd 7618 4bbe 7a1a 253e
00000320: efd9 68bc 36a7 013e 4ad0 28be d3b0 423e
00000330: 429d 6bbe e88a 9cbd 50bb 143e a8d6 99bd
00000340: ac1c 9ebd 58e3 b33d b955 753e 1b6d a43d
00000350: fbaf 1fbe 8769 443e 0b41 4b3e 8e05 7abe
00000360: 7a23 723b 4097 903e 3e32 63be 1f6a 5fbd
00000370: 03c3 b63b 77bf e9bd 74c0 e6bc 6afb b1bc
00000380: b819 1c3e 19c1 283e 9642 cc3d ee2b 5cbe
00000390: c4be debc 5bda 353c d074 05be 8894 8e3d
000003a0: b5ff da3c b367 42be e8cd 85bd d15a 08be
000003b0: b67c 0c3e 9997 3c3d 4289 fcbd 7882 553d
000003c0: dc87 39be 7828 c0bb da52 5e3d 0fe7 1a3e
000003d0: 1b76 db3d 871e 25bc a5e5 f6bd 6f79 23bd
000003e0: 209a 42be ecc7 7dbc 40e1 90bb 1204 7b3e
000003f0: de81 cbbc 6f63 3a3d 906a 263e e54b 26bc

arith.constant29 f4 [64]
-0.01713803 -0.06811513 -0.071043216 -0.06452837 -0.043376148 -0.04654776 -0.061528716 0.034960397
0.047537204 -0.035486117 -0.03341406 -0.03572445 -0.014995949 0.030727992 -0.015461717 0.11119581
0.07686138 -0.080488294 0.06418825 -0.057675447 0.09742779 0.024517287 -0.0066696387 0.095912024
-0.030988865 0.030141529 -0.01948327 -0.019087782 -0.015617497 -0.05121529 -0.044152908 -0.008561911
0.08178452 0.052939594 -0.03764696 -0.07680635 -0.038398527 -0.055982985 0.011791264 0.08844311
0.05932896 0.012296664 0.0796695 0.020804727 0.021182645 -0.018704927 -0.059478696 -0.04210543
0.00029724624 -0.07620636 -0.012419042 0.03588983 -0.016937198 -0.067167796 0.12483286 0.0276809
0.1282077 -0.021157643 -0.044545174 0.03453715 -0.016912114 0.0037889201 0.058048625 0.013920432
00000000: 0e65 8cbc f27f 8bbd 1b7f 91bd 7327 84bd
00000010: 30ab 31bd dda8 3ebd 8905 7cbd a232 0f3d
00000020: 5fb6 423d e459 11bd 2edd 08bd cd53 12bd
00000030: 92b1 75bc 45b9 fb3c 2453 7dbc a1ba e33d
00000040: 8069 9d3d 0cd7 a4bd 2175 833d 173d 6cbd
00000050: 3988 c73d 7ad8 c83c fc8c dabb 866d c43d
00000060: 5cdc fdbc 5eeb f63c 619b 9fbc fb5d 9cbc
00000070: 88e0 7fbc 20c7 51bd aed9 34bd 4247 0cbc
00000080: a47e a73d 30d7 583d b333 1abd a64c 9dbd
00000090: c647 1dbd 6a4e 65bd 2530 413c a921 b53d
000000a0: ec02 733d f277 493c c329 a33d ad6e aa3c
000000b0: 3a87 ad3c 133b 99bc ef9f 73bd be76 2cbd
000000c0: b7d7 9b39 1412 9cbd 3d79 4bbc 3701 133d
000000d0: e1bf 8abc 458f 89bd 5fa8 ff3d 0ec3 e23c
000000e0: e148 033e cb52 adbc 0075 36bd d476 0d3d
000000f0: 468b 8abc 884f 783b 65c4 6d3d 8612 643c

arith.constant30 f4 [128]
0.009348152 -0.06961412 -0.025617115 0.046229605 0.115075365 -0.14604251 0.01658074 -0.022287117
-0.012397763 -0.033412386 0.024865536 -0.05368027 -0.058063474 -0.047282007 -0.07844437 0.008317082
-0.02120164 -0.03255691 -0.060434137 0.026661992 0.032522686 -0.005130267 0.06222781 -0.055510454
-0.02949705 -0.04054577 -0.008083909 0.02394311 0.0267326 0.015389984 -0.019941535 -0.05734637
0.043339908 0.0423092 -0.03363119 -0.007438033 -0.00299244 0.013178926 -0.064965755 0.0041748206
-0.038157374 -0.061463304 0.03389481 -0.016045421 -0.047640912 -0.04254788 -0.07668243 -0.058181375
0.031278275 -0.03261808 0.022718275 0.07830219 0.006635065 -0.0108077815 0.0033134655 0.07013948
0.029119026 -0.038174946 0.019146547 -0.035506126 -0.0015729046 0.029403226 0.0010158768 0.090856664
0.013033904 0.0022877161 -0.009392867 -0.059429284 0.0097628785 -0.004125068 0.0038911095 -0.021724133
0.043788593 -0.036755696 0.03598362 -0.008542519 -0.019739036 -0.20329382 -0.009036807 0.07845174
-0.022608139 -0.06738131 -0.04120331 -0.014671884 -0.04300446 0.050730646 0.042885303 0.013728504
0.018001966 0.034042694 0.011242725 -0.021267867 -0.012419744 0.0019198628 0.045898143 -0.04328162
-0.049074393 0.09874483 -0.013648946 -0.09613365 0.025077458 -0.0036175116 -0.021077447 -0.02103646
0.07629964 0.01605156 -0.041760664 0.09530522 -0.013445193 -0.07821437 -0.014469258 0.022443444
-0.058941778 -0.072320715 0.02814088 0.043629006 -0.016623178 0.044701584 0.03929274 -0.082813926
-0.040212188 -0.050584015 -0.045199554 -0.06276338 0.026259558 -0.09346011 -0.12366801 -0.09362767
00000000: fe28 193c d991 8ebd fcda d1bc 415b 3d3d
00000010: a2ac eb3d 2b8c 15be 55d4 873c 7993 b6bc
00000020: fd1f 4bbc 6ddb 08bd cfb2 cb3c d8df 5bbd
00000030: f7d3 6dbd c7aa 41bd 71a7 a0bd 5f44 083c
00000040: 10af adbc 655a 05bd c989 77bd 406a da3c
00000050: 8236 053d cc1b a8bb 97e2 7e3d ee5e 63bd
00000060: cca3 f1bc 5213 26bd 5f72 04bc 5724 c43c
00000070: 53fe da3c 4526 7c3c 6e5c a3bc 07e4 6abd
00000080: 3085 313d 694c 2d3d dcc0 09bd beba f3bb
00000090: d01c 44bb 6cec 573c c40c 85bd efcc 883b
000000a0: e84a 1cbd f2c0 7bbd 49d5 0a3d b071 83bc
000000b0: 1e23 43bd b046 2ebd ae0b 9dbd 984f 6ebd
000000c0: a61d 003d 899a 05bd ad1b ba3c e65c a03d
000000d0: f66a d93b 1f13 31bc ba26 593b 4aa5 8f3d
000000e0: 068b ee3c 555d 1cbd 38d9 9c3c df6e 11bd
000000f0: ec29 ceba 09df f03c 2b27 853a 0f13 ba3d
00000100: 288c 553c 82ed 153b 8ae4 19bc 1f6c 73bd
00000110: 7bf4 1f3c 942b 87bb fc01 7f3b cff6 b1bc
00000120: ab5b 333d 248d 16bd 8f63 133d ecf5 0bbc
00000130: c2b3 a1bc 412c 50be 1e0f 14bc 4eab a03d
00000140: b434 b9bc 36ff 89bd cdc4 28bd 5762 70bc
00000150: 7225 30bd f0ca 4f3d 80a8 2f3d 85ed 603c
00000160: dc78 933c 5a70 0b3d 6833 383c f339 aebc
00000170: 2f7c 4bbc e8a3 fb3a b1ff 3b3d 1148 31bd
00000180: 3b02 49bd bb3a ca3d d49f 5fbc b8e1 c4bd
00000190: 3e6f cd3c c613 6dbb 9caa acbc a754 acbc
000001a0: fc42 9c3d 907e 833c 3b0d 2bbd 622f c33d
000001b0: 3a49 5cbc db2e a0bd 7710 6dbc 50db b73c
000001c0: ef6c 71bd e21c 94bd b487 e63c 54b4 323d
000001d0: 552d 88bc 0219 373d 6df1 203d 599a a9bd
000001e0: 89b5 24bd 2f31 4fbd 2b23 39bd 168a 80bd
000001f0: 491e d73c 0468 bfbd a745 fdbd ddbf bfbd
